hw2/torchDQN.pt (torch, 75745 bytes, 6 tensors)

layer1.weight f4 [128, 8]
000000 6f 2c 03 3d 45 de 10 be 8a e5 7a bd a5 75 d4 3c
       0.032024797 -0.14147289 -0.06125406 0.025935004
000010 6d 22 e7 be ee b8 23 be 63 2b 82 be 70 c2 7c 3e
       -0.45143452 -0.15988514 -0.25423726 0.24683547
000020 be 12 40 3d 18 72 27 be a7 be 1f be ba fb 93 be
       0.046892874 -0.16352117 -0.15600072 -0.2890299
000030 ec 10 05 3e a4 3a 0f 3f 77 f7 0d 3e ed b2 36 3e
       0.12994736 0.55948853 0.13863932 0.17841692
000040 c7 11 1d 3e d8 d9 7d bb b9 7d b1 bc bf a4 c6 bb
       0.15338813 -0.0038734581 -0.021666395 -0.0060621197
000050 0f 3e b7 3f 8b 1b c3 3b 31 49 3c be da e3 6a 3e
       1.4315814 0.005954211 -0.18387295 0.22938481
000060 47 7d 59 bd e0 98 42 3e 08 e8 0d 3e 14 fd a7 bb
       -0.05309799 0.1900363 0.13858044 -0.005126605
000070 48 de 26 3d 66 a3 f3 3e 2e 17 e1 bc 72 8e 2e bf
       0.040739328 0.475856 -0.027476873 -0.68186104
000080 9d 42 b1 3e b4 3e d7 3e f6 c4 8b be fb 67 2a bf
       0.34621134 0.42040026 -0.27298707 -0.6656491
000090 91 f6 d4 3d f4 7c 82 be 05 8a 20 bd 51 f9 68 3e
       0.10398591 -0.25485957 -0.039194126 0.22751357
0000a0 6f 2b f5 3e ec f6 19 bc 5f 70 50 3f 8a 06 f9 3d
       0.478847 -0.00939725 0.81421465 0.1215945
0000b0 72 3f 0e 3e aa 95 03 3b b6 55 7c be e9 05 00 3e
       0.1389139 0.002007822 -0.24642071 0.12502255
0000c0 80 ef 34 be a6 35 13 bc cc 71 a6 be ca bc 52 3f
       -0.17669487 -0.008984959 -0.32508695 0.8231932
0000d0 e4 75 a1 3e e7 b8 65 3d 41 70 29 3e 9d 62 24 3d
       0.31535256 0.05608454 0.16546728 0.040133107
0000e0 0a 7d 82 bd fc 55 03 3e 29 a8 35 bf f7 5f 7e bd
       -0.063715056 0.12825769 -0.7095972 -0.062103238
0000f0 80 a2 6e 3e cb f6 00 3f 59 90 c1 3e 8f 33 85 bd
       0.23304176 0.50376576 0.3780544 -0.06503975
000100 16 13 d5 3c b8 91 63 bc 90 eb 45 bf 22 78 c1 3d
       0.026010077 -0.0138897225 -0.77312565 0.09446742
000110 66 2f ab be 2a b7 96 be 37 2c fe bc 8b 6f 63 3e
       -0.334346 -0.29436618 -0.031026943 0.22210519
000120 e9 28 f4 3d 01 5a 21 bc 1b 58 23 3d 38 3d ac 3e
       0.119218655 -0.009848119 0.039878946 0.33640456
000130 a7 f8 b2 be d4 b9 7d be ad 07 28 bd cb 2a 1c 3e
       -0.34955332 -0.24777919 -0.041022945 0.15250699
000140 50 2f 48 be 86 b7 91 3e 37 69 c1 be 7b 2a 1e bf
       -0.19549298 0.2846033 -0.37775585 -0.6178357
000150 f1 79 a5 3d ca f3 1e be 09 15 18 be 98 4d 1c bd
       0.08079899 -0.15522686 -0.14851774 -0.038159937
000160 f7 a5 29 be 2d 3c e8 bd 4b f2 c4 bc f7 be 09 3f
       -0.16567217 -0.113396026 -0.024041316 0.53807014
000170 ef 52 fb 3d e3 6b 8d 3e 52 83 98 3e c9 b2 f5 be
       0.12271678 0.27621374 0.2978769 -0.47987965
000180 7c 55 1b 3c 6d c0 09 bc 9d 65 8b 3f 31 7d 2e bf
       0.00948083 -0.008407694 1.0890385 -0.68159777
000190 ba 88 ab 3d cf 5f 5c bd a5 2b ac be 05 85 60 be
       0.08375688 -0.053802308 -0.33627048 -0.21925743
0001a0 8c 4e 44 bd 21 d0 0d 3e bd fe 1d bc 0d 67 a4 3e
       -0.04792647 0.13848926 -0.009643254 0.32109872
0001b0 1a 15 74 3f 29 e0 f2 3e 89 64 ce bb 73 a5 8b 3e
       0.953447 0.47436646 -0.006298606 0.27274665
0001c0 e9 1a 2d 3e d3 1b ae 3e bd cf ce 3e f0 10 20 bf
       0.16904797 0.34005603 0.40392867 -0.62525845
0001d0 b3 34 97 3e dc d3 ce bc 87 fc 99 3e 49 e1 a4 3d
       0.29532394 -0.025247507 0.30075476 0.08050782
0001e0 32 2c 39 bc a9 ba 9a bd 66 cd d5 3d 32 8b b6 3c
       -0.011302041 -0.07555134 0.10439567 0.02228317
0001f0 26 bd c1 bc 5e 25 6a 3d 0e 18 e9 bd 55 6e 9a bd
       -0.023649763 0.057164542 -0.11381541 -0.075405754
000200 cd 17 8b 3e 5d 5d b3 3e d5 bf c6 be bc a1 96 be
       0.27166596 0.35032168 -0.3881823 -0.2942027
000210 bb 1f e3 bd b5 05 67 be da 04 ad be e8 da 0f be
       -0.110900365 -0.22560771 -0.33792764 -0.1404835
000220 4d d4 60 bd 0c 32 4b be c2 0b 93 3e 79 20 7e be
       -0.054889966 -0.1984331 0.28719908 -0.24817075
000230 27 60 9a bd e5 3d 19 bf 4b 9f 38 3e 79 aa af bd
       -0.07537871 -0.5986007 0.18029515 -0.08577437
000240 07 17 30 3d 1c d4 0e 3d 32 09 05 be 85 d8 39 3f
       0.04299071 0.034870252 -0.12991789 0.7259601
000250 22 ef 52 3b 1d bd 41 be 61 f0 87 bd 54 e4 8d 3e
       0.0032185991 -0.18919797 -0.066376455 0.27713263
000260 e5 0e e8 3d 6f cf b3 3c 59 12 98 be 58 4e 8a 3e
       0.11330966 0.021949498 -0.29701498 0.27012897
000270 3d 3c dc be 34 aa 87 be 5c 03 4c be 6f c7 99 3e
       -0.43014708 -0.26497042 -0.19923156 0.30034968
000280 ac 6c 98 be 95 9c 85 be 1c f8 09 bf 46 9b 41 3e
       -0.2977041 -0.26096025 -0.5389421 0.18906888
000290 92 ae 04 3f e5 69 c6 3e 85 10 13 3e 81 e9 3f 3e
       0.51828873 0.38752666 0.1436177 0.18741418
0002a0 b1 bd df bd ed e8 e2 3d 30 b3 75 3c 4a c6 67 3e
       -0.10924853 0.11079583 0.014996335 0.22634235
0002b0 24 a8 b4 3d 5e 4c ed 3e d5 cd c7 3e 38 60 4d bf
       0.08821133 0.46347326 0.39024225 -0.80224943
0002c0 d5 f6 d4 bd d7 8b 07 3e df d3 57 3e d5 e9 d4 be
       -0.10398642 0.13236938 0.21076916 -0.4158465
0002d0 d2 05 33 3e cf 31 4e bc 04 e1 bd 3e e0 8f 6f 3e
       0.17482689 -0.0125851175 0.37085736 0.23394728
0002e0 07 cc ca 3c 9f 61 b0 3e 17 d2 ca 3f 89 e1 06 bf
       0.024755491 0.3444948 1.5845364 -0.5268789
0002f0 66 3f f1 be fe 59 37 bc 6f 00 2f bf ba 94 67 3e
       -0.47118682 -0.011190889 -0.68360037 0.22615328
000300 79 98 31 bc 9c 5d 4a bd b7 f8 ed bd b1 d0 4f be
       -0.010839575 -0.04940568 -0.11619704 -0.20294453
000310 59 50 a5 be ff ac c4 be c3 cf 05 bf 9e aa 1a 3e
       -0.32287863 -0.38413236 -0.52270144 0.15104148
000320 17 8f c6 be 0b fc 0b 3e 82 12 15 bf e5 08 2d 3f
       -0.38781044 0.13670366 -0.58231366 0.67591697
000330 13 d1 17 3e 2b 43 c8 bd c7 31 33 3e e2 a8 bd bd
       0.14825849 -0.09778436 0.17499457 -0.092607275
000340 41 68 d8 bd a0 a7 b4 3e b6 dc ad be cf e3 4d bf
       -0.1056676 0.35284138 -0.33957452 -0.80425733
000350 69 e9 1d bf 9e 8d 8f be 8c 5b 27 3d da f7 ed 3e
       -0.6168428 -0.28037733 0.04085879 0.46478158
000360 aa d4 8c 3b d0 7f f6 38 a6 63 56 bb d8 25 00 bc
       0.0042978125 0.00011754001 -0.0032713204 -0.007821523
000370 ec 58 97 bf 94 d6 ae 3d 27 21 23 bf e8 e3 df be
       -1.1824012 0.08537021 -0.6372246 -0.43728566
000380 7b 08 ca be bc ab aa 3e 8d 7c a3 3c 57 01 44 3f
       -0.39459595 0.33334148 0.019956851 0.76564544
000390 fb 75 0a bf 0b 86 af bd fa 88 b0 3e 02 cb 00 bf
       -0.54086274 -0.085704885 0.34479505 -0.50309765
0003a0 d4 17 bc 3e f1 b8 b3 3e 25 cd bd be 57 e1 09 bf
       0.3673693 0.35102037 -0.37070575 -0.53859466
0003b0 26 1b 0f 3f 99 40 02 be f8 b7 af be d3 7b 38 bc
       0.559008 -0.12719955 -0.34320045 -0.011259991
0003c0 18 9a be 3d 99 96 16 3e 27 40 d3 bf 43 53 5f bf
       0.09306735 0.14705886 -1.6503953 -0.8723642
0003d0 8a eb 2d be 4f 87 2d 3d 92 9f 59 3d 09 6f c0 3d
       -0.16984382 0.04236537 0.053130694 0.09396178
0003e0 cd fe b6 3e b7 36 0e be f3 42 2b 3f 07 e0 a4 be
       0.35741273 -0.1388806 0.6689903 -0.3220217
0003f0 db 15 08 bf 95 ba 9a 3e fd b5 99 be 2e 0b 99 be
       -0.5315835 0.30220476 -0.3002166 -0.29891342

layer1.bias f4 [128]
000000 1e 56 4a 3e 8c d7 1b be 5e 77 1d 3c 64 e7 a3 3e
       0.19759414 -0.15218943 0.009610979 0.32012475
000010 c7 9a 82 3e ef 78 42 3d fb 5d ae 3e 6f da 0f bb
       0.2550871 0.047478613 0.34056076 -0.0021950265
000020 74 ca 87 3e e8 ab 5d 3e a3 72 a2 3e 6f 96 b0 3e
       0.26521647 0.21647608 0.31728086 0.34489772
000030 1f 19 f9 ba 59 98 5e be 1c 28 55 3e 30 5a 4c be
       -0.0019004679 -0.21737804 0.20816082 -0.19956279
000040 b1 f2 47 be a1 ad 18 3e e5 bc 38 3e 0f 5b 3a be
       -0.19526173 0.14909984 0.18040808 -0.18198799
000050 8a b7 0e 3e 99 c8 cc 3d 25 aa 79 3e 4e 2b 44 3e
       0.13937202 0.099991985 0.24381311 0.19157144
000060 44 59 00 3e f5 9b 4d 3e 13 64 db 3d 06 aa 1a bb
       0.12534052 0.20079024 0.10712447 -0.0023599877
000070 bb 4c 04 3e f7 18 32 bc 29 41 67 3e b4 0b 19 3e
       0.12919895 -0.01087021 0.2258345 0.1494587
000080 bf fc 4a 3c e0 52 87 bb 3a 97 49 3d 12 e4 10 be
       0.012389361 -0.0041297525 0.049216487 -0.14149502
000090 84 e8 a2 3e b0 df c6 3e f4 8c 0a bd ff 0d 54 3e
       0.3181802 0.38842535 -0.03382583 0.20708464
0000a0 5d f7 70 3e b1 a4 5d 3e bb 0d a0 3c 8c 67 96 3e
       0.23531862 0.21644856 0.019537797 0.29375875
0000b0 21 f0 6c 3b b7 10 1f be 1c b2 a8 3c f7 97 f5 bc
       0.003615387 -0.1553372 0.020592742 -0.029979689
0000c0 5a c6 b2 3e 1f b1 24 be d0 4f aa 39 1a 3a d6 3d
       0.34916955 -0.16083191 0.00032484392 0.10460301
0000d0 a6 64 2e 3e 94 c1 90 3d fd dd a9 3d 52 bf d3 bd
       0.17030582 0.07068172 0.08294294 -0.10339226
0000e0 56 2a 85 3e 91 b2 4a be f5 78 2e 3e 4a 86 95 3e
       0.26008862 -0.1979468 0.17038329 0.29204017
0000f0 b4 7a 96 bd 95 f0 af 3d 64 d0 00 3e 7e d2 0b 3e
       -0.073476225 0.08590809 0.12579495 0.13654515
000100 36 b6 8c 3e a7 32 36 be 75 5a e1 bc 0c d7 81 be
       0.27482766 -0.1779276 -0.027508954 -0.2535938
000110 ff fe fd 3b e0 56 05 3d ab 3c a1 3e c2 c3 bc 3d
       0.007751345 0.032553554 0.31491598 0.09217025
000120 46 e5 06 3d a3 d5 73 3e dd 21 f4 3d 6d ba 0a bd
       0.032933496 0.23811965 0.119205214 -0.033869196
000130 8b ed b7 bc 79 c1 1f 3e 98 d5 d3 3a b4 d7 2a be
       -0.022452137 0.15601148 0.0016161678 -0.16683847
000140 64 25 a8 3e 2a fe d0 3e 5a ca 87 3e 90 24 11 be
       0.32841027 0.40818912 0.2652157 -0.14174104
000150 a8 c3 3d 3e b0 58 b7 3d f1 c3 86 3e cc d7 b5 3e
       0.18531668 0.08952463 0.26321366 0.35516202
000160 f8 34 85 3d 65 a2 86 3e 1d 75 44 3e f1 7c 22 bc
       0.065042436 0.26295772 0.191853 -0.009917484
000170 40 c6 e6 3d cc 7e 4a 3e 0c c8 99 3e 62 90 6e 3e
       0.11268282 0.19774932 0.30035436 0.23297265
000180 9e 08 89 3e 32 3e 91 3e 41 6d 2d bd 29 06 7e be
       0.26764387 0.28367764 -0.04234052 -0.24807037
000190 a3 7d 80 3d 2d 88 b8 bd fd ff 5e 3d 7a 09 59 bd
       0.06273963 -0.090103485 0.05444335 -0.052987553
0001a0 65 d0 9b be e0 ae b9 bd 96 f3 2e be 95 94 4d 3e
       -0.3043243 -0.09066558 -0.17085108 0.20076211
0001b0 69 c7 a8 bb 79 de 55 bc 21 ae 21 3e 71 78 8e 3e
       -0.0051507247 -0.01305353 0.15789081 0.27826265
0001c0 72 93 0a 3e 26 c2 fb bb 76 53 93 3d 2e fe 98 3e
       0.13532808 -0.0076830564 0.07193653 0.29881424
0001d0 33 85 97 3e ca ae 3b 3c 1d 53 64 3e 2c 9a 67 3e
       0.2959381 0.011455247 0.2229733 0.22617406
0001e0 48 7a 5a be f3 6a b2 3d 72 1e 14 3e b1 02 a3 3e
       -0.21335709 0.08711805 0.14464739 0.3183799
0001f0 62 60 63 3e ba 1f 6e 3e ad 8a 96 be e3 0e 88 3e
       0.22204736 0.2325429 -0.29402676 0.26573858

layer2.weight f4 [128, 128]
000000 86 4b 94 be cc 7c ab be 55 36 5c 3f fe e4 27 3e
       -0.2896387 -0.3349365 0.86020404 0.16395947
000010 ab e7 68 3e 21 f7 01 3d 0a 88 38 be f9 2d 09 bd
       0.22744624 0.03172982 -0.18020645 -0.03349111
000020 76 f4 2c be c5 90 3b be ad 4b 57 3e 79 40 54 be
       -0.1689013 -0.18316944 0.21024962 -0.2072772
000030 30 ce 00 3f 79 23 f6 3e b3 37 22 3e cd fe 8b 3c
       0.5031462 0.48073938 0.1584156 0.017089272
000040 4e 20 93 3e 7f fd 0e 3e 58 e4 28 bc 2b c7 8a be
       0.28735584 0.13963889 -0.010308348 -0.27105078
000050 65 83 e0 be ab 30 22 be 58 74 0e 3e cd ae 3e 3d
       -0.43850246 -0.15838878 0.13911569 0.04655342
000060 de 01 f9 bd 2c 56 1d be a9 ef b0 3e 0b 76 b2 3f
       -0.12158559 -0.15364903 0.34557846 1.3942274
000070 ed b5 ef bd 0f d3 c2 3e b1 d5 be 3d 69 76 af be
       -0.117046215 0.3805165 0.09318102 -0.34270027
000080 39 e9 7d 3e b2 b6 7e be 43 84 06 3e 33 75 48 be
       0.24795999 -0.2487438 0.13136391 -0.19575958
000090 8b ab 54 3e 77 34 6d 3e f4 3b b6 3e 8c 6b cc 3d
       0.20768563 0.23164545 0.35592616 0.099814504
0000a0 f6 1e d5 3d 4b d4 93 bd a1 3d 99 3e c2 b9 62 3d
       0.10406296 -0.07218226 0.29929832 0.055352934
0000b0 64 84 81 be 1b ec 30 be 45 5f 96 be 20 1d 2e 3d
       -0.2529632 -0.17277567 -0.2936956 0.042508245
0000c0 e5 7f 1f 3e 63 76 48 be c3 ad 4e be 30 52 8f 3e
       0.15576132 -0.19576411 -0.20183472 0.27992392
0000d0 fe 5f 7d 3d 96 01 1d 3e 62 bf 81 be 74 9a d8 bc
       0.061859123 0.15332636 -0.25341326 -0.026440836
0000e0 e2 38 28 3e b3 7d 8a be 4b 41 53 3e c7 43 10 3d
       0.16427949 -0.27049026 0.20630376 0.035220888
0000f0 33 65 6e be 9f ef 91 3e c7 cc dc bc 1a a9 45 3e
       -0.23280792 0.2850313 -0.026953114 0.19302788
000100 70 bc 14 3e 5c 42 f9 be b0 43 34 be 8b ce 35 3f
       0.14525008 -0.4868344 -0.17603946 0.71018285
000110 82 03 d9 bd ee ed 4a bd 98 8e c1 3d ab 28 46 3e
       -0.10596372 -0.049543314 0.09451026 0.19351451
000120 da 1e 50 3e 00 38 27 3e ab da 8e 3d 0b 0e ef 3d
       0.20324269 0.16329956 0.06975301 0.116726
000130 d4 70 33 be 59 be 9c 3d 79 7c f6 3e 75 c5 90 be
       -0.1752351 0.076534934 0.4814184 -0.28275648
000140 36 9c 57 3e 71 8c 9f 3d 1c aa 07 3e 6c 49 1e bf
       0.21055683 0.07790459 0.13248485 -0.6183078
000150 72 d7 89 3e a9 35 18 bf a6 23 6d 3e b5 6d 81 be
       0.26922184 -0.5945688 0.2315813 -0.25279012
000160 e0 17 63 3e 12 0b 75 be e9 6b ec 3d b4 3c a0 3e
       0.22177076 -0.23930004 0.1154402 0.31296313
000170 e1 41 0e be 5d e6 71 3e 7f ce 88 3d d4 09 1b be
       -0.13892318 0.23623033 0.06680011 -0.15140468
000180 d1 30 b7 3d 9b 4f d7 3d 70 73 a0 3e 43 96 82 be
       0.08944858 0.105132304 0.31338072 -0.25505266
000190 98 fd 8f 3e 66 16 23 3f 8c 0c 2d 3e 30 6e b0 3e
       0.28123164 0.6370605 0.16899318 0.34459066
0001a0 f6 22 f0 bd 4d 63 46 3a a5 59 01 be f2 67 4b 3e
       -0.11725418 0.00075678976 -0.12631853 0.1986387
0001b0 ab ce 0a 3f 98 05 9f 3f 72 75 50 be 74 bb eb 3d
       0.542216 1.2423582 -0.20357302 0.11510363
0001c0 7a f2 4b bd 69 f3 b8 3e 83 8b 0a be cd 24 59 3e
       -0.04979179 0.36123207 -0.13529782 0.21205445
0001d0 d0 80 59 3e 6a bd bf be 8a 82 a5 bd 20 df 5f 3b
       0.21240544 -0.374492 -0.08081539 0.0034160092
0001e0 6a 4c bd bd af cb 10 3e d4 c5 b7 bd e3 d9 5a 3d
       -0.092430905 0.14140199 -0.089732796 0.05343045
0001f0 35 d9 51 3e aa a7 98 bd 79 37 c8 bd d5 9e 34 3e
       0.20493014 -0.074538544 -0.097762056 0.17638715
000200 6a 08 9f bc 60 07 4c 3d b3 36 1e 3c 30 5b 96 bb
       -0.019413192 0.04981172 0.009656596 -0.004588507
000210 3b 7d 8a bc 3e d4 2c bd ae d1 95 bc bf 14 3a bd
       -0.016905418 -0.042194597 -0.01828846 -0.04542994
000220 dc 0f d1 3a de 5a a4 bc a4 cb 28 3c c2 11 a7 bc
       0.0015950161 -0.02006286 0.010302458 -0.02039421
000230 68 a8 8f bc 12 93 00 3d d3 7f 67 bc 8a f7 d5 3c
       -0.017536357 0.031390257 -0.014129597 0.026119012
000240 f2 82 07 3d 45 d5 47 bd be 77 58 3b 2c 35 26 bd
       0.033083864 -0.048787374 0.0033030356 -0.040578052
000250 64 c7 1c bd 72 7b 84 3c 85 5f a7 bc c6 4b 25 bd
       -0.03827609 0.016172145 -0.02043129 -0.040355466
000260 39 f1 b2 3c f7 1a 82 bc ea 21 c1 bc eb 92 bb 3c
       0.02184354 -0.015881998 -0.023575742 0.022897204
000270 25 45 71 3c 7b f2 80 bb f6 d4 43 bd db 01 e5 3c
       0.014725958 -0.003935156 -0.047810517 0.027954986
000280 58 63 50 bd 42 7a 83 bc f6 b7 a5 3c fd c6 20 bd
       -0.05087599 -0.016049508 0.020229321 -0.03925227
000290 9e 41 d9 bc 36 f2 22 3d 19 4d 2a bc e2 9e 3d 3c
       -0.026520547 0.03978177 -0.010394358 0.011573525
0002a0 c0 e3 26 bd 00 6d 63 bc fc 3b d9 3c 53 8f e3 bc
       -0.040744543 -0.013880968 0.02651786 -0.027778303
0002b0 f7 7f f2 bc a6 89 2d bd e6 41 e5 39 5c e9 af bb
       -0.029602034 -0.0423676 0.00043727382 -0.005368395
0002c0 22 6f e2 3c 9c 1b ed 3c 7e b8 2c bc 55 ad 07 bc
       0.027640883 0.02894383 -0.010542033 -0.008281072
0002d0 0f 86 28 3b d1 2f b4 bb 90 a1 96 bc e3 20 30 bd
       0.002571467 -0.005498864 -0.018387586 -0.043000113
0002e0 a0 7f 12 3d 84 6b 3f 3d 58 2e 8f bc 9e 38 e0 39
       0.035766244 0.046733394 -0.017478153 0.00042766792
0002f0 81 56 34 bd 58 b7 2f bc 9e 85 41 3c db ab f7 bb
       -0.04402781 -0.010724865 0.011811642 -0.0075583286
000300 5e 8c 22 3b 21 f4 32 3d 88 7f 46 bd ad ae 33 bc
       0.0024802904 0.04368985 -0.048461467 -0.010966939
000310 c8 1f f2 3c 56 15 49 3d 8e 34 a3 bc d8 7f 0c bd
       0.02955617 0.049092613 -0.019922521 -0.03430161
000320 d4 31 53 bd 76 06 24 bd 78 b2 8e 3c 2f 57 1b bd
       -0.05156119 -0.040045224 0.017419085 -0.03792494
000330 1e 81 37 3d bd 02 34 3d 2e 74 33 3d b6 3e 1e 3d
       0.04480087 0.043947924 0.04381197 0.038634025
000340 83 4d f5 bb a1 f5 93 bc 48 32 cd bc 46 cb 07 bd
       -0.0074860468 -0.01806146 -0.02504839 -0.03315284
000350 9b da 71 3c 37 a7 98 3c 00 c9 ce bc b0 b2 ea 3c
       0.014761592 0.018634422 -0.025242329 0.028649658
000360 ae 5c 09 bd cf d1 37 3d d0 c6 c5 3b 3e d2 24 3d
       -0.03353565 0.044877823 0.006035663 0.040239565
000370 ad 85 d9 bc 56 65 24 3b ac 02 1d 3d 56 03 b1 bc
       -0.026553 0.0025084815 0.038332626 -0.021608036
000380 d0 f6 b1 bc 4b 25 76 bc a4 ba 3d 3b e4 7d 2a bc
       -0.021724135 -0.01502354 0.0028950358 -0.010405991
000390 a0 77 ac bc 13 9f 37 bd fd 32 11 bc 7f 57 b6 3c
       -0.021053135 -0.04482944 -0.008862254 0.022258518
0003a0 31 05 3c bd 06 4e 2c bd 21 2a 9d bb 8b 7d 81 3c
       -0.04590339 -0.042066596 -0.004796282 0.015806934
0003b0 dc d9 13 bd d3 3a f4 3b 3d 77 80 3c 01 85 3f bc
       -0.03609644 0.0074533015 0.015681857 -0.011689425
0003c0 5a fe 26 bd b3 dc f7 bc ac c6 8e 3b 30 e5 0f bd
       -0.040769912 -0.030256605 0.0043571796 -0.03513068
0003d0 26 0e fc bc b5 18 fb bc c9 c7 1a 3c 68 37 cb 3c
       -0.030768465 -0.03065143 0.009447047 0.024806693
0003e0 c4 43 1b bc 0b 13 f4 bc 49 36 28 bd a6 11 50 3d
       -0.009476606 -0.029794237 -0.041067395 0.05079808
0003f0 b1 b3 07 bc d8 56 15 3d 45 42 15 bd 99 16 ff bc
       -0.008282588 0.036459774 -0.036440153 -0.031138705

layer2.bias f4 [128]
000000 eb a2 19 3e 0b d4 de 3c c1 1b 8d 3d 4d df 1e bd
       0.15003555 0.02720072 0.06890059 -0.038787175
000010 e6 5d 9f 3b 6b 93 2a bd af d9 33 3e 03 a6 2f 3d
       0.0048634885 -0.041644495 0.17563508 0.04288293
000020 6c bd 1d 3e 3b ab 28 3e 9f f4 4c 3e cc c2 0d 3c
       0.1540429 0.16471569 0.2001519 0.0086524
000030 a3 0c 65 bc 79 77 c0 3d 50 07 43 3c 44 8f b6 bb
       -0.013980064 0.093977876 0.011903599 -0.005571278
000040 7e 6e e4 3d 99 af f3 bd 6f 07 bf 3d ad df 36 be
       0.11153887 -0.11898727 0.0932759 -0.17858763
000050 d2 98 8b 3d 29 67 2c 3e 77 64 ef 3d 98 0f 2e bd
       0.068162575 0.16836227 0.11689084 -0.04249534
000060 2b 71 70 3d 80 04 66 bc 30 80 9f 3d e6 9b a0 3c
       0.058701675 -0.014039159 0.07788122 0.019605588
000070 39 c3 45 3e 4a 99 e2 3d 89 8c bc bd c0 b0 36 3e
       0.19312753 0.11064394 -0.092064925 0.17840862
000080 ac 55 c6 3d 70 6c 10 3d d0 c0 af 3c e2 1f 34 bd
       0.09684309 0.035259664 0.021454245 -0.04397572
000090 4b e6 39 3e 8e 78 33 bd 2e be 24 3e d3 05 b4 bc
       0.18154256 -0.04381614 0.16088173 -0.021975433
0000a0 07 4f 0f 3e 4e fc 4d 3d 68 0d fa bc c5 04 8e bd
       0.1399499 0.050289445 -0.03052397 -0.069345035
0000b0 26 1f a6 3d 2f 92 65 3d 48 ff 00 3e 6c 4e 00 3e
       0.0811141 0.056047615 0.12597382 0.12529916
0000c0 cb 8a 4c 3d b8 52 2f 3d 6a de 1a be 68 1d ba 3d
       0.04993705 0.042803496 -0.15123907 0.0908764
0000d0 02 7c 3b 3d 26 68 ca 3d bd 7b e3 3d f2 22 b4 3c
       0.04577256 0.09883146 0.111075856 0.02198932
0000e0 59 5c 00 3e 1f a7 a6 3d c8 92 98 3d eb 81 5e 3d
       0.12535228 0.081373446 0.07449871 0.05432312
0000f0 b0 f2 a1 3d ba 93 bb 3d c0 52 a8 3d f9 7a f7 bc
       0.07907617 0.09159036 0.08218908 -0.030210005
000100 04 25 75 3e 9d 7a 1e bd 25 b8 b1 3d 40 d7 89 3c
       0.23939902 -0.038691152 0.08677701 0.016826272
000110 fe 3f 0c 3e 75 13 1a 3e e7 60 83 3d d5 22 79 3d
       0.13696286 0.15046485 0.06414967 0.060824234
000120 9d 30 68 3d 5a 6b 88 3b ab 7c a6 3d 26 1f f8 bc
       0.056686986 0.004163188 0.08129247 -0.03028829
000130 b1 f7 4a 3d 5c 9b bf 3d 2e 45 d0 3d 26 6e 61 bd
       0.049552623 0.09355804 0.10169445 -0.055036686
000140 27 ad 84 3d ea 4d ec 3d 1f bf e0 3c f2 d8 68 3d
       0.06478339 0.115382984 0.027434884 0.05684752
000150 34 85 dc 3d a6 7e 9a 3d 4a ee c3 3d 59 63 de 3b
       0.10767594 0.075436875 0.095669344 0.0067867455
000160 02 a0 17 3e 77 70 25 3d ed 98 da 3d 05 98 89 3d
       0.14807132 0.040390458 0.106736995 0.067184485
000170 c3 7b cd 3d b9 ff 7f 3e 5c dc 31 be 2c 25 61 bc
       0.10033371 0.24999894 -0.17369217 -0.013741773
000180 8a 9b 28 3e e1 42 26 3e 57 43 a5 3d 2a 48 63 bd
       0.16465583 0.1623645 0.08069485 -0.055488743
000190 99 02 04 3d a3 2d ae 3d f2 98 4c bb 7b cc 35 3e
       0.03222904 0.08504798 -0.0031219092 0.17753784
0001a0 f0 96 97 3d da d8 71 3a 72 ee 08 3e 12 9c 4b 3d
       0.07401836 0.0009225734 0.1337221 0.049709387
0001b0 d6 b1 ee 3d c3 16 58 3d d9 0e 20 3c 71 11 1c bd
       0.11655013 0.052756082 0.009769165 -0.03810257
0001c0 25 95 72 bb 65 c6 15 3c 4f 41 45 3d 4f 02 b2 3d
       -0.0037015167 0.009141539 0.048157986 0.086918466
0001d0 6c c0 88 3d 8c bd b1 bc 3f f3 6d 3b df 0e a7 3d
       0.066773266 -0.021696828 0.0036308316 0.08157133
0001e0 e5 9d 8a 3d 56 a8 00 3c 88 8a 6b bc c5 14 11 3e
       0.06768397 0.007852634 -0.01437629 0.14168079
0001f0 02 56 8c 3d 35 fb 1c 3e 21 45 4d 3e 78 64 65 bd
       0.06852342 0.15330203 0.20045902 -0.056004018

layer3.weight f4 [4, 128]
000000 2c 70 bb 3e 06 ad 2e 3d 0e d9 dc 3e 83 52 97 bc
       0.36609018 0.042645477 0.4313435 -0.018471962
000010 b7 07 1e bc a7 a8 00 3d fb 9d cf 3e 94 33 95 3f
       -0.009645394 0.03141084 0.40550217 1.1656365
000020 a9 26 13 3f cb db d7 be 04 be b2 be 24 6e 88 be
       0.57480866 -0.42159876 -0.34910595 -0.2664653
000030 2f 1c 8b be 8c 01 e3 be 03 e1 35 ba cd cf 15 3b
       -0.2716994 -0.44337118 -0.00069381314 0.0022859455
000040 22 8c 9f be 54 2b b5 3e 6a 37 87 be db ab 8d be
       -0.311616 0.3538462 -0.26409465 -0.27670178
000050 4e e8 97 be b7 59 a0 3f e3 8b a2 be 8a 8c 02 bd
       -0.29669422 1.2527379 -0.3174735 -0.03187231
000060 2c ca 36 3f bf 94 99 be f6 20 c4 be 5f b6 f0 3c
       0.7140224 -0.29996297 -0.38306397 0.029383836
000070 49 ea b8 be dd d6 ce be 48 3e 87 be 5d c7 d4 3e
       -0.36116245 -0.40398303 -0.26414704 0.41558352
000080 29 51 65 3f c3 4c b3 3c 7a cb eb 3c 4b 7a 77 3e
       0.89576966 0.021887189 0.028783549 0.24167745
000090 4e 73 ac 3e 94 c2 3b 3d e5 0b 99 3e 84 09 9e 3c
       0.3368172 0.04583986 0.29891887 0.019291647
0000a0 75 d6 3f be d8 da 8f be 38 d1 a6 3b 5d 00 0d 3e
       -0.18734153 -0.28096652 0.005090859 0.1376967
0000b0 b2 c8 7c 3e ea 89 20 3e 2d a2 82 3e 2f ac a5 3e
       0.24685934 0.1567761 0.25514355 0.32357928
0000c0 99 07 c2 be 9b f7 09 3f 4c 6c 13 be 17 35 f5 be
       -0.37896422 0.5389344 -0.1439678 -0.47892067
0000d0 85 b1 26 3f a0 22 57 bf c2 98 c3 be 23 a3 07 3c
       0.65114623 -0.8403721 -0.38202482 0.008278641
0000e0 93 a6 07 3f 33 6a b1 be 41 74 97 be a7 01 4f be
       0.5298855 -0.34651336 -0.29580882 -0.20215474
0000f0 2b de 38 3f 5e 92 0d bf f8 d1 b4 be 2d 60 87 be
       0.72214 -0.55301464 -0.35316443 -0.26440564
000100 3c c4 c5 3e 9b e2 70 3f 34 b9 03 3f 77 a7 06 bf
       0.38626277 0.9409577 0.5145447 -0.5259928
000110 2d c0 cd be 93 0c 66 be ec be f8 be 43 1e ba 3e
       -0.4018568 -0.22465734 -0.48583162 0.36351213
000120 c0 f8 e4 be a0 bb 8f 3a 00 e1 9f be 74 fe 8e 3c
       -0.4472103 0.0010965951 -0.3122635 0.017455317
000130 e4 83 3f be 25 8d 09 bf 02 5f 13 3f bf b2 9d be
       -0.18702656 -0.53730994 0.57566845 -0.30800435
000140 ec 6e d8 3e 18 83 dc 3e 78 7c 69 be 29 b0 2e bf
       0.42272127 0.43068767 -0.22801387 -0.6823755
000150 98 7d d6 be 73 f3 9d 3f b7 82 db 3e f0 30 4c 3c
       -0.41892695 1.233992 0.42873165 0.0124628395
000160 43 74 c4 3e e7 b4 70 3f 1d 96 98 be 6d ce 2b bf
       0.3836995 0.94026035 -0.29802027 -0.67111856
000170 fa e2 b0 bd 31 65 09 bf 7a 22 d0 3e c1 d7 9e be
       -0.08637042 -0.5367003 0.40651304 -0.31023982
000180 fe 3d 07 3f f7 52 29 3f 45 5b c1 be d2 ee a0 bb
       0.5282897 0.6614222 -0.37764946 -0.004911282
000190 d0 43 ce bd e2 f0 4c 3f b6 47 90 be b8 ee 96 3e
       -0.10071528 0.8005506 -0.2817971 0.29479003
0001a0 13 18 b9 3e 76 40 62 3c 1f ae 91 be 99 d6 23 3f
       0.3615118 0.013809314 -0.28453156 0.63999325
0001b0 1b 63 d1 3e 6b 1f ca be 45 69 e8 3e 70 d6 83 bc
       0.40895924 -0.39477095 0.45392814 -0.016093463
0001c0 b0 ed 14 3d ab f9 c0 be 99 d6 b6 be b5 e7 d3 3f
       0.03635949 -0.37690482 -0.357106 1.6555086
0001d0 f9 7a 16 be 78 a5 be be 61 9c 78 3f 84 e2 cc 3e
       -0.14695348 -0.37235618 0.97113615 0.40016568
0001e0 4c 2f 98 be a9 2e a7 3d db 98 35 3d c0 20 97 3e
       -0.29723585 0.081631966 0.044335227 0.29517174
0001f0 8c b1 ba be f5 12 b2 be 0e b1 fa be 28 52 4d 3d
       -0.36463583 -0.34780088 -0.48963207 0.05012718
000200 1b af 95 3e c3 40 31 3d 5c 1b 06 3f 0e 43 a2 3c
       0.29235157 0.043274652 0.523855 0.019807365
000210 65 3c db bc 58 1a cb 3b d2 e9 4d 3f 72 a9 64 3f
       -0.026762197 0.006198209 0.80434906 0.89321053
000220 ae 76 06 3f ef 7c df be c7 56 dd be 61 6e 80 be
       0.5252484 -0.43650004 -0.43230268 -0.25084212
000230 87 42 89 be 80 3e d2 be 77 97 aa 3c c8 9b 41 3d
       -0.2680857 -0.4106331 0.020824177 0.047267705
000240 fa 17 89 be 07 bf 8d 3e 99 ab a5 be c8 df 0d bf
       -0.26776105 0.27684805 -0.3235748 -0.5541959
000250 34 d6 39 be 71 0c 94 3f 42 72 70 be 74 04 0e bd
       -0.18148118 1.1566297 -0.23481086 -0.034672216
000260 3f 0f 20 3f 65 38 02 be 26 23 01 bf 85 25 b5 3c
       0.62523264 -0.12716825 -0.5044426 0.022112617
000270 12 17 f2 be 35 60 b3 be 2e b8 ad be 2d 59 c6 3e
       -0.47283226 -0.35034338 -0.3392958 0.3873991
000280 67 d0 83 3f a4 05 17 bb 64 05 a1 3b 3c d1 b0 3e
       1.0297974 -0.0023044134 0.0049139727 0.34534633
000290 0f 32 b8 3e 1c 13 e8 3c 1e b4 75 3e e8 bf 4c bd
       0.35975692 0.028329425 0.2399449 -0.049987704
0002a0 f9 99 12 bf 19 2e 91 be da 2a 1e bd fc 43 1f 3e
       -0.57266194 -0.28355482 -0.038615085 0.15553278
0002b0 f1 3e 6a 3e 68 db b5 3d 34 78 ab 3e cd 6e a3 3e
       0.22875573 0.08879739 0.33490145 0.31920472
0002c0 2c 62 e8 be ce c4 03 3f a9 c4 de be 5f 2c 51 bf
       -0.453874 0.51472175 -0.43509415 -0.8170833
0002d0 4c 83 06 3f 0f 40 24 bf 11 f0 de be 70 fb ee bc
       0.52544093 -0.64160246 -0.4354253 -0.02917263
0002e0 b0 66 fe 3e 64 b4 7d be a5 f6 79 be 3c df ad be
       0.4968772 -0.24775845 -0.24410494 -0.33959377
0002f0 60 ae 4f 3f 62 36 ae be 41 78 f0 bd 5d c5 a2 be
       0.8112545 -0.34025866 -0.117416866 -0.317912
000300 e5 dd c4 3e eb 3f 51 3f b8 50 13 3f 43 18 df be
       0.38450542 0.81738156 0.5754504 -0.43573198
000310 91 a9 8d be 96 4e 41 be 8c ce da be 04 a4 73 3e
       -0.2766843 -0.18877634 -0.42735708 0.23793036
000320 a6 7d dc be 8d fc 9e bb 21 40 61 be b4 b7 ef bb
       -0.43064612 -0.0048518837 -0.2199712 -0.0073156003
000330 22 8f 9b be b3 60 0d bf cb ef 22 3f 53 ab c8 be
       -0.3038264 -0.55225676 0.63647145 -0.3919321
000340 95 1a b5 3e 92 84 9a 3e 6a 10 95 be e3 0a 33 bf
       0.35371843 0.30179268 -0.29114085 -0.69938487
000350 20 6b ee be 35 23 92 3f aa f9 03 3f 47 47 88 bc
       -0.46566105 1.1416994 0.5155283 -0.01663555
000360 d6 64 ca 3e ac 14 70 3f 2e 9e 6e be da 84 3e bf
       0.39530057 0.9378154 -0.23302528 -0.74421465
000370 c3 50 1e 3d d6 65 63 bf 27 35 d3 be d7 ba a4 be
       0.03865124 -0.88827264 -0.4125149 -0.32173797
000380 8b ac 06 3f d9 e5 48 3f bc b6 cc be 58 98 c3 3b
       0.5260703 0.7847572 -0.39983165 0.0059690885
000390 59 34 15 3e be e2 5f 3f 35 42 4e be 22 e2 99 3e
       0.1457075 0.87455356 -0.20142443 0.30055338
0003a0 b7 00 de 3e 42 3b da 3e 74 da f4 be 1e e0 4a 3f
       0.4335992 0.42623335 -0.47822917 0.79248226
0003b0 3e 13 f4 3e b8 1e e4 be ed 6a 42 3f 8e 0f a2 3c
       0.4767093 -0.44554687 0.75944406 0.019782808
0003c0 3f 4c e6 bc a1 34 e7 be 4d 64 55 be c4 40 bb 3f
       -0.028112529 -0.4515734 -0.20839043 1.462914
0003d0 fb 2b 75 be 4c 8c b9 be b5 14 84 3f ee fb f1 3e
       -0.23942558 -0.3623985 1.0318819 0.4726252
0003e0 27 fb a5 be 1f 4d 77 be 94 92 3e 3d e6 d3 74 3e
       -0.32418177 -0.24150513 0.046526507 0.23908958
0003f0 ab 50 ce be 87 41 ba bd 06 13 e9 be 53 99 19 3d
       -0.4029592 -0.090945296 -0.45522326 0.037499737

layer3.bias f4 [4]
000000 ed 1d db 3c 99 96 a4 3d 31 cf 1f 3d 5f 68 96 3d
       0.026747668 0.08036537 0.039015952 0.07344126
